model.ckpt (torch, 618643 bytes, 6 tensors)

layers.0.weight f4 [50, 3072]
-0.026052743 -0.034683175 -0.038049974 -0.03521238 -0.017629445 -0.027178396 -0.023757305 -0.016097303
-0.023820551 -0.032604497 -0.025971666 -0.0074335947 -9.901965e-05 -0.032470595 -0.037740972 -0.020764537
-0.023704758 -0.037749477 -0.045583192 -0.03305727 -0.014429221 -0.01589558 -0.009773266 -0.017469525
-0.01184084 -0.024573147 -0.043618932 -0.04002067 -0.013468128 -0.0053044492 -0.014214021 0.005051303
-0.026671927 -0.013304336 -0.02945687 -0.024863815 -0.010178349 -0.0075519257 -0.022532731 -0.01886615
-0.006669101 -1.14960185e-05 -0.017006364 0.004055371 0.012693639 -0.01949243 -0.01841224 -0.00984228
-0.029329773 -0.03838723 -0.05098887 -0.035524137 -0.019995749 -0.01771239 -0.01235862 -0.013192667
-0.0088390205 -0.02996384 -0.04057173 -0.029312596 -0.030113488 -0.024526145 -0.029889807 -0.021796685
-0.0030040797 0.013152535 0.009815448 0.005002308 -0.010359571 -0.017159175 -0.014723467 -0.010042616
0.0048588943 0.005905158 -0.011062058 0.013368005 0.025038615 0.012341052 0.00734557 0.013975476
0.013295701 0.00083351537 -0.018314164 -0.0009783101 -0.0037651723 0.010949268 0.0035942022 -0.02323035
-0.0065077445 -0.017668962 -0.014325373 -0.009494373 -0.023341177 -0.03522435 -0.024924707 -0.033242594
0.010259944 0.027674405 0.027861945 0.015703827 -0.0026574926 -0.0064268955 0.018089004 0.029061789
0.019649664 0.0027573083 0.00021825808 0.025174009 0.015635686 0.0009073391 0.005308543 0.014707612
0.028931392 0.028306836 0.0024510887 0.0012760579 0.0030741242 0.025668789 0.03362449 0.007990566
0.002145566 0.015110215 0.010539232 0.010958117 -0.00014518018 -0.016424598 -0.0063730483 -0.019457301
0.0027016853 0.0132736135 0.02605447 0.0024662763 -0.003397809 0.0049227555 0.017744929 0.020439211
0.019194828 0.0115950145 -0.0020242124 0.023351822 0.010953809 -0.019692084 -0.023271214 -0.006810423
-0.0027680811 0.02475599 6.812415e-05 -0.0023366392 0.013725133 0.01094735 0.017115423 -0.004254901
-0.010813894 -0.009017779 -0.016748682 -0.01547173 -0.005834656 -0.008223054 -0.021387806 -0.017027233
0.017028151 0.020955645 0.025883328 0.009730762 0.019464623 0.008339335 -0.0017715389 0.0009880416
0.016096145 0.0015408118 0.005633185 0.017686129 -0.0013322929 -0.04340174 -0.056030206 -0.033941057
-0.03204086 -0.003068709 -0.012592709 -0.032980423 -0.020207549 -0.005884702 -0.021800555 -0.024634115
-0.012531305 -0.03518599 -0.03667798 -0.011626177 -0.0057463315 -0.018689515 -0.029838553 -0.031801004
0.0025749744 -0.000115518895 0.026998628 0.018769775 0.016080257 0.003955491 -0.020201102 -0.0044507054
-0.0070691523 -0.019908767 0.0021213156 -0.026984911 -0.05188632 -0.05145779 -0.04635599 -0.051160194
-0.05002238 -0.025164543 -0.01839721 -0.053809494 -0.049237717 -0.022589302 -0.015823081 -0.0059681684
0.017324345 0.003713715 0.0023560412 0.010413254 -0.011538981 -0.027333628 -0.026259145 -0.0430833
-0.012046462 -0.0006628048 0.03425066 0.012466552 -0.0024585188 0.00218991 -0.012990638 -0.004382505
-0.013731446 -0.053632185 -0.03781579 -0.04332298 -0.04879244 -0.04346265 -0.028223388 -0.040937945
-0.053885944 -0.055775084 -0.06886531 -0.07669659 -0.04631858 0.004728142 0.0042750677 0.00017630248
-0.0020046718 -0.0023000892 0.022676602 0.016682707 -0.014964571 -0.031581286 -0.009605144 -0.010416844
00000000: 906c d5bc f20f 0ebd 4ada 1bbd db3a 10bd
00000010: a06b 90bc 3aa5 debc ae9e c2bc 7ede 83bc
00000020: 5123 c3bc 4b8c 05bd 88c2 d4bc 8395 f3bb
00000030: c5a8 cfb8 e3ff 04bd 4796 1abd 641a aabc
00000040: 7b30 c2bc 329f 1abd 71b5 3abd 0f67 07bd
00000050: 8a68 6cbc 7337 82bc 0c20 20bc 401c 8fbc
00000060: 1500 42bc a04d c9bc c4a9 32bd b7ec 23bd
00000070: 6ca9 5cbc f2d0 adbb ede1 68bc 6785 a53b
00000080: 167f dabc 6efa 59bc 894f f1bc 33af cbbc
00000090: 17c3 26bc 2576 f7bb 9096 b8bc 2f8d 9abc
000000a0: 7988 dabb 06df 40b7 ee50 8bbc ebe2 843b
000000b0: fbf8 4f3c 97ae 9fbc 44d5 96bc 8441 21bc
000000c0: fe44 f0bc ee3b 1dbd b5d9 50bd c281 11bd
000000d0: 20ce a3bc 9319 91bc cf7b 4abc 0e26 58bc
000000e0: 8ad1 10bc ba76 f5bc 8b2e 26bd f820 f0bc
000000f0: 90b0 f6bc 0eeb c8bc 78db f4bc f68e b2bc
00000100: 18e0 44bb bb7d 573c f9d0 203c 67ea a33b
00000110: 31bb 29bc 6691 8cbc b23a 71bc c989 24bc
00000120: 5c37 9f3b 0e80 c13b a23d 35bc 7a05 5b3c
00000130: c81d cd3c 2032 4a3c 1bb3 f03b 65f9 643c
00000140: 36d6 593c 4580 5a3a 9607 96bc a43a 80ba
00000150: 1cc1 76bb 8f64 333c b58c 6b3b 934d bebc
00000160: eb3e d5bb 80be 90bc f8b4 6abc 498e 1bbc
00000170: ff35 bfbc 6847 10bd e62e ccbc 6329 08bd
00000180: 5319 283c 6fb5 e23c bc3e e43c 50a5 803c
00000190: 5429 2ebb b598 d2bb 642f 943c fd12 ee3c
000001a0: 55f8 a03c f5b3 343b 35dc 6439 b939 ce3c
000001b0: 6916 803c 7fda 6d3a 49f3 ad3b 32f8 703c
000001c0: 8701 ed3c bde3 e73c 72a2 203b 6641 a73a
000001d0: 3f77 493b 5a47 d23c d5b9 093d ddea 023c
000001e0: a09c 0c3b d690 773c beac 2c3c ad89 333c
000001f0: 823b 18b9 e18c 86bc 01d5 d0bb eb64 9fbc
00000200: c20e 313b 9279 593c 2f70 d53c 40a1 213b
00000210: c7ad 5ebb 114f a13b d05d 913c 2270 a73c
00000220: 793e 9d3c 04f9 3d3c a6a8 04bb 524c bf3c
00000230: 9b77 333c 4b51 a1bc 46a3 bebc f829 dfbb
00000240: b268 35bb 13cd ca3c e0dd 8e38 4d22 19bb
00000250: 61df 603c 845c 333c a535 8c3c b26c 8bbb
00000260: c22c 31bc 4ebf 13bc 8834 89bc 247d 7dbc
00000270: a430 bfbb fdb9 06bc 7b35 afbc b27c 8bbc
00000280: 9f7e 8b3c 2cab ab3c 4609 d43c c66d 1f3c
00000290: 4674 9f3c b5a1 083c fb32 e8ba 2d81 813a
000002a0: 10dc 833c 11f5 c93a 9596 b83b 80e2 903c
000002b0: 55a0 aeba 06c6 31bd ee7f 65bd c705 0bbd
000002c0: 473d 03bd 651c 49bb a651 4ebc 7b16 07bd
000002d0: 4d8a a5bc 75d4 c0bb 1497 b2bc 7ccd c9bc
000002e0: 1a50 4dbc 2f1f 10bd a63b 16bd b87b 3ebc
000002f0: b94b bcbb c11a 99bc fb6f f4bc c541 02bd
00000300: e7c0 283b bc42 f2b8 3a2c dd3c 12c3 993c
00000310: beba 833c 109d 813b c87c a5bc 39d7 91bb
00000320: 59a4 e7bb b617 a3bc c505 0b3b 760f ddbc
00000330: c086 54bd 67c5 52bd c7df 3dbd 5a8d 51bd
00000340: 44e4 4cbd df25 cebc bfb5 96bc 5867 5cbd
00000350: 7dad 49bd 330d b9bc 689f 81bc a090 c3bb
00000360: c9eb 8d3c cc61 733b d067 1a3b 5a9c 2a3c
00000370: ff0d 3dbc c6ea dfbc 6b1d d7bc 1d78 30bd
00000380: 865e 45bc 14c0 2dba 6c4a 0c3d 8240 4c3c
00000390: 1a1f 21bb 9884 0f3b afd6 54bc 1e9b 8fbb
000003a0: dcf9 60bc 6cad 5bbd bbe4 1abd 7073 31bd
000003b0: 95da 47bd e405 32bd bc34 e7bc 8cae 27bd
000003c0: 82b7 5cbd 6a74 64bd 4109 8dbd 1a13 9dbd
000003d0: 8db8 3dbd 88ee 9a3b de15 8c3b d6dd 3839
000003e0: d060 03bb 18bd 16bb 48c4 b93c 2caa 883c
000003f0: f62d 75bc 615b 01bd e55e 1dbc 69ab 2abc

layers.0.bias f4 [50]
-0.19445752 0.23363285 0.12863752 0.3090812 -0.30011323 0.099352926 0.18213099 0.15872534
-0.29948422 -0.17833202 0.02713506 -0.012268415 0.32012138 0.31995282 0.15749456 -0.2992082
0.07703852 0.6175741 0.08744632 0.20556717 0.28643584 -0.3303495 0.3456378 -0.081250384
0.14787242 -0.025725175 0.3354863 -0.12281433 0.031081911 0.3163848 0.15264569 0.024999455
0.3749479 0.004632336 0.15999237 -0.30920005 -0.23150626 0.1178622 -0.15944882 0.08125424
0.33308578 -0.011211749 -0.13423325 -0.2191603 0.15956311 0.11914674 -0.471331 0.16295235
-0.010072719 0.12637335
00000000: df1f 47be 733d 6f3e 8eb9 033e e43f 9e3e
00000010: 71a8 99be 8c79 cb3d 8c80 3a3e e588 223e
00000020: ff55 99be ab9c 36be 584a de3c 7601 49bc
00000030: f3e6 a33e dbd0 a33e 4146 213e d131 99be
00000040: 5fc6 9d3d 5619 1e3f 0e17 b33d 3380 523e
00000050: b8a7 923e 9223 a9be 70f7 b03e 9a66 a6bd
00000060: de6b 173e 9abd d2bc dcc4 ab3e 1486 fbbd
00000070: 7e9f fe3c 30fd a13e 274f 1c3e a8cb cc3c
00000080: 2cf9 bf3e daca 973b 0ad5 233e 784f 9ebe
00000090: fa0f 6dbe bd61 f13d 8d46 23be 9f68 a63d
000000a0: 388a aa3e 7cb1 37bc 7174 09be 8f6b 60be
000000b0: 8364 233e 3503 f43d 4c52 f1be fbdc 263e
000000c0: 0c08 25bc 0468 013e

layers.1.inplace.weight f4 [50, 3072]
-0.026052743 -0.034683175 -0.038049974 -0.03521238 -0.017629445 -0.027178396 -0.023757305 -0.016097303
-0.023820551 -0.032604497 -0.025971666 -0.0074335947 -9.901965e-05 -0.032470595 -0.037740972 -0.020764537
-0.023704758 -0.037749477 -0.045583192 -0.03305727 -0.014429221 -0.01589558 -0.009773266 -0.017469525
-0.01184084 -0.024573147 -0.043618932 -0.04002067 -0.013468128 -0.0053044492 -0.014214021 0.005051303
-0.026671927 -0.013304336 -0.02945687 -0.024863815 -0.010178349 -0.0075519257 -0.022532731 -0.01886615
-0.006669101 -1.14960185e-05 -0.017006364 0.004055371 0.012693639 -0.01949243 -0.01841224 -0.00984228
-0.029329773 -0.03838723 -0.05098887 -0.035524137 -0.019995749 -0.01771239 -0.01235862 -0.013192667
-0.0088390205 -0.02996384 -0.04057173 -0.029312596 -0.030113488 -0.024526145 -0.029889807 -0.021796685
-0.0030040797 0.013152535 0.009815448 0.005002308 -0.010359571 -0.017159175 -0.014723467 -0.010042616
0.0048588943 0.005905158 -0.011062058 0.013368005 0.025038615 0.012341052 0.00734557 0.013975476
0.013295701 0.00083351537 -0.018314164 -0.0009783101 -0.0037651723 0.010949268 0.0035942022 -0.02323035
-0.0065077445 -0.017668962 -0.014325373 -0.009494373 -0.023341177 -0.03522435 -0.024924707 -0.033242594
0.010259944 0.027674405 0.027861945 0.015703827 -0.0026574926 -0.0064268955 0.018089004 0.029061789
0.019649664 0.0027573083 0.00021825808 0.025174009 0.015635686 0.0009073391 0.005308543 0.014707612
0.028931392 0.028306836 0.0024510887 0.0012760579 0.0030741242 0.025668789 0.03362449 0.007990566
0.002145566 0.015110215 0.010539232 0.010958117 -0.00014518018 -0.016424598 -0.0063730483 -0.019457301
0.0027016853 0.0132736135 0.02605447 0.0024662763 -0.003397809 0.0049227555 0.017744929 0.020439211
0.019194828 0.0115950145 -0.0020242124 0.023351822 0.010953809 -0.019692084 -0.023271214 -0.006810423
-0.0027680811 0.02475599 6.812415e-05 -0.0023366392 0.013725133 0.01094735 0.017115423 -0.004254901
-0.010813894 -0.009017779 -0.016748682 -0.01547173 -0.005834656 -0.008223054 -0.021387806 -0.017027233
0.017028151 0.020955645 0.025883328 0.009730762 0.019464623 0.008339335 -0.0017715389 0.0009880416
0.016096145 0.0015408118 0.005633185 0.017686129 -0.0013322929 -0.04340174 -0.056030206 -0.033941057
-0.03204086 -0.003068709 -0.012592709 -0.032980423 -0.020207549 -0.005884702 -0.021800555 -0.024634115
-0.012531305 -0.03518599 -0.03667798 -0.011626177 -0.0057463315 -0.018689515 -0.029838553 -0.031801004
0.0025749744 -0.000115518895 0.026998628 0.018769775 0.016080257 0.003955491 -0.020201102 -0.0044507054
-0.0070691523 -0.019908767 0.0021213156 -0.026984911 -0.05188632 -0.05145779 -0.04635599 -0.051160194
-0.05002238 -0.025164543 -0.01839721 -0.053809494 -0.049237717 -0.022589302 -0.015823081 -0.0059681684
0.017324345 0.003713715 0.0023560412 0.010413254 -0.011538981 -0.027333628 -0.026259145 -0.0430833
-0.012046462 -0.0006628048 0.03425066 0.012466552 -0.0024585188 0.00218991 -0.012990638 -0.004382505
-0.013731446 -0.053632185 -0.03781579 -0.04332298 -0.04879244 -0.04346265 -0.028223388 -0.040937945
-0.053885944 -0.055775084 -0.06886531 -0.07669659 -0.04631858 0.004728142 0.0042750677 0.00017630248
-0.0020046718 -0.0023000892 0.022676602 0.016682707 -0.014964571 -0.031581286 -0.009605144 -0.010416844
00000000: 906c d5bc f20f 0ebd 4ada 1bbd db3a 10bd
00000010: a06b 90bc 3aa5 debc ae9e c2bc 7ede 83bc
00000020: 5123 c3bc 4b8c 05bd 88c2 d4bc 8395 f3bb
00000030: c5a8 cfb8 e3ff 04bd 4796 1abd 641a aabc
00000040: 7b30 c2bc 329f 1abd 71b5 3abd 0f67 07bd
00000050: 8a68 6cbc 7337 82bc 0c20 20bc 401c 8fbc
00000060: 1500 42bc a04d c9bc c4a9 32bd b7ec 23bd
00000070: 6ca9 5cbc f2d0 adbb ede1 68bc 6785 a53b
00000080: 167f dabc 6efa 59bc 894f f1bc 33af cbbc
00000090: 17c3 26bc 2576 f7bb 9096 b8bc 2f8d 9abc
000000a0: 7988 dabb 06df 40b7 ee50 8bbc ebe2 843b
000000b0: fbf8 4f3c 97ae 9fbc 44d5 96bc 8441 21bc
000000c0: fe44 f0bc ee3b 1dbd b5d9 50bd c281 11bd
000000d0: 20ce a3bc 9319 91bc cf7b 4abc 0e26 58bc
000000e0: 8ad1 10bc ba76 f5bc 8b2e 26bd f820 f0bc
000000f0: 90b0 f6bc 0eeb c8bc 78db f4bc f68e b2bc
00000100: 18e0 44bb bb7d 573c f9d0 203c 67ea a33b
00000110: 31bb 29bc 6691 8cbc b23a 71bc c989 24bc
00000120: 5c37 9f3b 0e80 c13b a23d 35bc 7a05 5b3c
00000130: c81d cd3c 2032 4a3c 1bb3 f03b 65f9 643c
00000140: 36d6 593c 4580 5a3a 9607 96bc a43a 80ba
00000150: 1cc1 76bb 8f64 333c b58c 6b3b 934d bebc
00000160: eb3e d5bb 80be 90bc f8b4 6abc 498e 1bbc
00000170: ff35 bfbc 6847 10bd e62e ccbc 6329 08bd
00000180: 5319 283c 6fb5 e23c bc3e e43c 50a5 803c
00000190: 5429 2ebb b598 d2bb 642f 943c fd12 ee3c
000001a0: 55f8 a03c f5b3 343b 35dc 6439 b939 ce3c
000001b0: 6916 803c 7fda 6d3a 49f3 ad3b 32f8 703c
000001c0: 8701 ed3c bde3 e73c 72a2 203b 6641 a73a
000001d0: 3f77 493b 5a47 d23c d5b9 093d ddea 023c
000001e0: a09c 0c3b d690 773c beac 2c3c ad89 333c
000001f0: 823b 18b9 e18c 86bc 01d5 d0bb eb64 9fbc
00000200: c20e 313b 9279 593c 2f70 d53c 40a1 213b
00000210: c7ad 5ebb 114f a13b d05d 913c 2270 a73c
00000220: 793e 9d3c 04f9 3d3c a6a8 04bb 524c bf3c
00000230: 9b77 333c 4b51 a1bc 46a3 bebc f829 dfbb
00000240: b268 35bb 13cd ca3c e0dd 8e38 4d22 19bb
00000250: 61df 603c 845c 333c a535 8c3c b26c 8bbb
00000260: c22c 31bc 4ebf 13bc 8834 89bc 247d 7dbc
00000270: a430 bfbb fdb9 06bc 7b35 afbc b27c 8bbc
00000280: 9f7e 8b3c 2cab ab3c 4609 d43c c66d 1f3c
00000290: 4674 9f3c b5a1 083c fb32 e8ba 2d81 813a
000002a0: 10dc 833c 11f5 c93a 9596 b83b 80e2 903c
000002b0: 55a0 aeba 06c6 31bd ee7f 65bd c705 0bbd
000002c0: 473d 03bd 651c 49bb a651 4ebc 7b16 07bd
000002d0: 4d8a a5bc 75d4 c0bb 1497 b2bc 7ccd c9bc
000002e0: 1a50 4dbc 2f1f 10bd a63b 16bd b87b 3ebc
000002f0: b94b bcbb c11a 99bc fb6f f4bc c541 02bd
00000300: e7c0 283b bc42 f2b8 3a2c dd3c 12c3 993c
00000310: beba 833c 109d 813b c87c a5bc 39d7 91bb
00000320: 59a4 e7bb b617 a3bc c505 0b3b 760f ddbc
00000330: c086 54bd 67c5 52bd c7df 3dbd 5a8d 51bd
00000340: 44e4 4cbd df25 cebc bfb5 96bc 5867 5cbd
00000350: 7dad 49bd 330d b9bc 689f 81bc a090 c3bb
00000360: c9eb 8d3c cc61 733b d067 1a3b 5a9c 2a3c
00000370: ff0d 3dbc c6ea dfbc 6b1d d7bc 1d78 30bd
00000380: 865e 45bc 14c0 2dba 6c4a 0c3d 8240 4c3c
00000390: 1a1f 21bb 9884 0f3b afd6 54bc 1e9b 8fbb
000003a0: dcf9 60bc 6cad 5bbd bbe4 1abd 7073 31bd
000003b0: 95da 47bd e405 32bd bc34 e7bc 8cae 27bd
000003c0: 82b7 5cbd 6a74 64bd 4109 8dbd 1a13 9dbd
000003d0: 8db8 3dbd 88ee 9a3b de15 8c3b d6dd 3839
000003e0: d060 03bb 18bd 16bb 48c4 b93c 2caa 883c
000003f0: f62d 75bc 615b 01bd e55e 1dbc 69ab 2abc

layers.1.inplace.bias f4 [50]
-0.19445752 0.23363285 0.12863752 0.3090812 -0.30011323 0.099352926 0.18213099 0.15872534
-0.29948422 -0.17833202 0.02713506 -0.012268415 0.32012138 0.31995282 0.15749456 -0.2992082
0.07703852 0.6175741 0.08744632 0.20556717 0.28643584 -0.3303495 0.3456378 -0.081250384
0.14787242 -0.025725175 0.3354863 -0.12281433 0.031081911 0.3163848 0.15264569 0.024999455
0.3749479 0.004632336 0.15999237 -0.30920005 -0.23150626 0.1178622 -0.15944882 0.08125424
0.33308578 -0.011211749 -0.13423325 -0.2191603 0.15956311 0.11914674 -0.471331 0.16295235
-0.010072719 0.12637335
00000000: df1f 47be 733d 6f3e 8eb9 033e e43f 9e3e
00000010: 71a8 99be 8c79 cb3d 8c80 3a3e e588 223e
00000020: ff55 99be ab9c 36be 584a de3c 7601 49bc
00000030: f3e6 a33e dbd0 a33e 4146 213e d131 99be
00000040: 5fc6 9d3d 5619 1e3f 0e17 b33d 3380 523e
00000050: b8a7 923e 9223 a9be 70f7 b03e 9a66 a6bd
00000060: de6b 173e 9abd d2bc dcc4 ab3e 1486 fbbd
00000070: 7e9f fe3c 30fd a13e 274f 1c3e a8cb cc3c
00000080: 2cf9 bf3e daca 973b 0ad5 233e 784f 9ebe
00000090: fa0f 6dbe bd61 f13d 8d46 23be 9f68 a63d
000000a0: 388a aa3e 7cb1 37bc 7174 09be 8f6b 60be
000000b0: 8364 233e 3503 f43d 4c52 f1be fbdc 263e
000000c0: 0c08 25bc 0468 013e

layers.2.weight f4 [10, 50]
0.05940803 0.029734664 -0.0997213 -0.13593143 -0.03552082 0.13356109 -0.10242467 0.014995933
-0.03306115 -0.1380149 -0.16501738 -0.11041808 0.077327736 0.08987378 0.055481244 0.019159043
-0.007688792 -0.055792283 -0.05573614 -0.12506099 0.009127291 -0.12638794 0.048005234 -0.06611049
-0.07078884 0.018534064 -0.009730632 -0.025676837 0.11015581 -0.14470579 -0.068739384 -0.13729174
-0.0038501031 0.038090922 0.12117275 -0.09434207 -0.08560078 0.06881051 0.13775519 -0.037715442
0.060124066 0.057567533 -0.012406702 -0.1343729 0.06740848 0.08789739 0.066728786 0.078582965
0.14069021 -0.10543275 0.105734736 -0.12518798 0.020911003 -0.22316265 0.0665904 -0.055152427
-0.02016638 0.02304259 -0.06506534 0.023269763 -0.09220242 -0.069169104 -0.027505536 -0.055396996
-0.20511952 0.23781516 -0.10559747 -0.11406523 -0.19984657 -0.14673115 -0.17738962 0.09188738
-0.115932606 -0.16821992 -0.054277837 -0.057980563 -0.06651163 -0.017600862 0.075345695 0.0633493
0.23992576 0.07033045 -0.17942418 0.0590642 -0.0039781304 0.17458086 0.16434482 -0.07598824
0.12174343 0.022158276 -0.077938475 0.24028806 0.04381868 -0.016151477 -0.02267481 0.15262385
0.097021475 0.031356283 0.11281272 -0.0925205 -0.018191567 0.15566288 -0.11603822 0.14471334
-0.10115909 -0.025209073 -0.08094685 0.030165263 -0.08780715 -0.066197395 0.032907214 -0.053054083
-0.006889552 0.025122186 -0.08514078 -0.12231865 -0.008693778 0.10112682 0.05296727 -0.0022042405
0.06570306 -0.15171087 0.021440499 0.07559741 0.10286608 -0.05139932 0.08783593 -0.059712783
-0.026497357 -0.043064702 -0.011188966 -0.09258887 0.035976607 -0.14780489 0.09213992 -0.12472715
-0.14330852 0.07380883 -0.07314524 0.050108336 0.050860673 -0.1112426 -0.09972717 -0.008700598
-0.08164791 -0.03417079 -0.14388888 -0.10617372 -0.036260117 0.048333228 -0.09117175 -0.110494204
0.0144779775 0.08296862 -0.06603768 0.01429024 0.09179941 0.09057189 -0.053306293 0.04829642
0.049710978 0.0549825 -0.036539245 -0.025368355 0.05827435 -0.1270227 0.02288762 -0.069128506
0.033411074 0.06083138 0.06112069 -0.058717255 -0.04218899 0.05975031 0.10697825 -0.0045861253
-0.0038690998 -0.018852428 -0.18905559 -0.004748902 -0.06301342 0.038159605 0.10003323 -0.02848594
-0.018134573 -0.09745115 -0.0271175 0.015152084 -0.1801811 -0.08449982 -0.101384975 -0.07782989
-0.034190804 0.06276029 -0.048948888 -0.075143844 -0.09071757 0.08513203 -0.18774563 0.10337701
-0.03664072 -0.036077995 0.104908444 0.016127039 -0.009514469 -0.010050047 -0.06944159 -0.037010293
-0.08308277 -0.13815957 0.004859425 -0.17812094 -0.010671454 -0.04318306 0.034149084 0.0071326727
0.04634446 0.10283131 0.0068195816 -0.05570498 0.089908935 -0.0026079863 0.04315332 -0.027425274
0.014755977 -0.024522219 0.056528334 0.012242078 -0.082273886 0.12771061 -0.4309369 -0.08776492
0.024435572 -0.040759258 0.02453893 -0.10624721 -0.14463194 0.051271092 -0.0483819 -0.0053697596
0.0915059 0.0027675272 -0.0873336 -0.16545342 -0.038198642 0.043666728 -0.016785994 -0.19544014
-0.03692998 -0.023739845 -0.12323896 -0.082846224 -0.048317563 0.1047496 -0.08966902 0.030935727
00000000: d655 733d 1c96 f33c ae3a ccbd 9c31 0bbe
00000010: 487e 11bd 3dc4 083e 06c4 d1bd 80b1 753c
00000020: 216b 07bd c753 0dbe 51fa 28be e022 e2bd
00000030: 015e 9e3d bf0f b83d 4d40 633d 6df3 9c3c
00000040: 43f2 fbbb 7386 64bd 944b 64bd fd0f 00be
00000050: a28a 153c d76b 01be 23a1 443d f064 87bd
00000060: bdf9 90bd c0d4 973c 3b6d 1fbc 3b58 d2bc
00000070: 5f99 e13d c12d 14be 3cc7 8cbd 3596 0cbe
00000080: 0352 7cbb 3a05 1c3d 6b29 f83d 6a36 c1bd
00000090: 764f afbd 86ec 8c3d b20f 0d3e 827b 1abd
000000a0: a744 763d efcb 6b3d 7b45 4bbc 0d99 09be
000000b0: 750d 8a3d 8c03 b43d 1aa9 883d 1bf0 a03d
000000c0: 1811 103e 20ed d7bd 748b d83d 4731 00be
000000d0: 8d4d ab3c c084 64be 8c60 883d 83e7 61bd
000000e0: f733 a5bc d0c3 bc3c fa40 85bd 3ba0 be3c
000000f0: 9fd4 bcbd 88a8 8dbd 4a53 e1bc f6e7 62bd
00000100: da0a 52be d185 733e 7d43 d8bd 089b e9bd
00000110: 94a4 4cbe b140 16be a0a5 35be 732f bc3d
00000120: 136e edbd d841 2cbe 7052 5ebd 077d 6dbd
00000130: 4037 88bd af2f 90bc d84e 9a3d 47bd 813d
00000140: 19af 753e 6909 903d f9ba 37be 4ded 713d
00000150: fa5a 82bb 53c5 323e 024a 283e b99f 9bbd
00000160: 9f54 f93d 4685 b53c 359e 9fbd 130e 763e
00000170: 377b 333d 1a50 84bc 86c0 b9bc 6d49 1c3e
00000180: 32b3 c63d 726f 003d 5b0a e73d 637b bdbd
00000190: 7b06 95bc 1766 1f3e 72a5 edbd bc2f 143e
000001a0: 7f2c cfbd 4283 cebc 76c7 a5bd 241d f73c
000001b0: 3cd4 b3bd 8092 87bd b7c9 063d 3d4f 59bd
000001c0: c0c1 e1bb 0bcd cd3c 4a5e aebd 3382 fabd
000001d0: 5970 0ebc 941b cf3d 35f4 583d 0575 10bb
000001e0: 538f 863d 185a 1bbe fca3 af3c d1d2 9a3d
000001f0: 74ab d23d 1888 52bd 53e3 b33d 6495 74bd
00000200: fc10 d9bc 9d64 30bd ed51 37bc 3c9f bdbd
00000210: 355c 133d 2a5a 17be dbb3 bc3d f370 ffbd
00000220: 78bf 12be 1529 973d 2ccd 95bd 663e 4d3d
00000230: 4853 503d 29d3 e3bd c23d ccbd f48c 0ebc
00000240: 0537 a7bd acf6 0bbd 9b57 13be 9b71 d9bd
00000250: 7d85 14bd 10f9 453d 41b8 babd c94a e2bd
00000260: 0a35 6d3c 74eb a93d c33e 87bd 9c21 6a3c
00000270: 5401 bc3d c17d b93d b357 5abd 78d2 453d
00000280: bd9d 4b3d 5435 613d 2daa 15bd 4cd1 cfbc
00000290: 16b1 6e3d 3d12 02be d17e bb3c 3f93 8dbd
000002a0: 0dda 083d 532a 793d b059 7a3d 8181 70bd
000002b0: 5dce 2cbd bebc 743d 6a17 db3d 3547 96bb
000002c0: b990 7dbb 6870 9abc ca97 41be ad9c 9bbb
000002d0: 2e0d 81bd 3f4d 1c3d 39de cc3d 595b e9bc
000002e0: f58e 94bc 7894 c7bd 8525 debc 7240 783c
000002f0: 6581 38be 3e0e adbd eda2 cfbd 4765 9fbd
00000300: a80b 0cbd 7888 803d a17e 48bd 04e5 99bd
00000310: 22ca b9bd b459 ae3d 6440 40be 53b7 d33d
00000320: 9414 16bd 85c6 13bd 3dda d63d da1c 843c
00000330: 93e2 1bbc f4a8 24bc 6437 8ebd 1b98 17bd
00000340: 4d27 aabd b479 0dbe d03b 9f3b 5665 36be
00000350: 52d7 2ebc b8e0 30bd e9df 0b3d 32b9 e93b
00000360: b0d3 3d3d 3999 d23d cc76 df3b e82a 64bd
00000370: 2d22 b83d c0ea 2abb 89c1 303d f8aa e0bc
00000380: 0ec3 713c d2e2 c8bc 418a 673d ff92 483c
00000390: 367f a8bd 92c6 023e c3a3 dcbe 18be b3bd
000003a0: 1c2d c83c 2ef3 26bd de05 c93c 2398 d9bd
000003b0: 651a 14be a301 523d 192c 46bd cff4 afbb
000003c0: 7267 bb3d 675f 353b f5db b2bd 9f6c 29be
000003d0: 2e76 1cbd e2db 323d c882 89bc 7621 48be
000003e0: e443 17bd 107a c2bc b564 fcbd 48ab a9bd
000003f0: a3e8 45bd f586 d63d 64a4 b7bd ec6c fd3c

layers.2.bias f4 [10]
-0.04399861 -0.34165674 0.240223 -0.05179489 0.31263596 -0.0759177 0.22259033 -0.1896792
0.1615238 -0.2504084
00000000: e337 34bd a2ed aebe 05fd 753e e126 54bd
00000010: d211 a03e bd7a 9bbd b8ee 633e 443b 42be
00000020: 7f66 253e 8835 80be
